…
        "id": "uZFLBlGwWBcq",
        "outputId": "bcc907e7-133b-48a9-f735-37adf7ad953c"
      },
      "source": [
        "model.summary()"
      ],
      "execution_count": 9,
      "outputs": [
        {
          "output_type": "stream",
          "name": "stdout",
          "text": [
            "Model: \"sequential\"\n",
            "_________________________________________________________________\n",
            "Layer (type)                 Output Shape              Param #   \n",
            "=================================================================\n",
            "conv2d (Conv2D)              (None, 224, 224, 64)      640       \n",
            "_________________________________________________________________\n",
            "conv2d_1 (Conv2D)            (None, 112, 112, 64)      36928     \n",
            "_________________________________________________________________\n",
            "max_pooling2d (MaxPooling2D) (None, 56, 56, 64)        0         \n",
            "_________________________________________________________________\n",
            "conv2d_2 (Conv2D)            (None, 56, 56, 128)       73856     \n",
            "_________________________________________________________________\n",
            "conv2d_3 (Conv2D)            (None, 56, 56, 128)       147584    \n",
            "_________________________________________________________________\n",
            "max_pooling2d_1 (MaxPooling2 (None, 28, 28, 128)       0         \n",
            "_________________________________________________________________\n",
            "conv2d_4 (Conv2D)            (None, 28, 28, 256)       295168    \n",
            "_________________________________________________________________\n",
            "conv2d_5 (Conv2D)            (None, 28, 28, 256)       590080    \n",
            "_________________________________________________________________\n",
            "conv2d_6 (Conv2D)            (None, 28, 28, 256)       590080    \n",
            "_________________________________________________________________\n",
            "max_pooling2d_2 (MaxPooling2 (None, 14, 14, 256)       0         \n",
            "_________________________________________________________________\n",
            "conv2d_7 (Conv2D)            (None, 14, 14, 512)       1180160   \n",
            "_________________________________________________________________\n",
            "conv2d_8 (Conv2D)            (None, 14, 14, 512)       2359808   \n",
            "_________________________________________________________________\n",
            "conv2d_9 (Conv2D)            (None, 14, 14, 512)       2359808   \n",
            "_________________________________________________________________\n",
            "max_pooling2d_3 (MaxPooling2 (None, 7, 7, 512)         0         \n",
            "_________________________________________________________________\n",
            "flatten (Flatten)            (None, 25088)             0         \n",
            "_________________________________________________________________\n",
            "dense (Dense)                (None, 4096)              102764544 \n",
            "_________________________________________________________________\n",
            "dense_1 (Dense)              (None, 4096)              16781312  \n",
            "_________________________________________________________________\n",
            "dense_2 (Dense)              (None, 2)                 8194      \n",
            "=================================================================\n",
            "Total params: 127,188,162\n",
            "Trainable params: 127,188,162\n",
            "Non-trainable params: 0\n",
            "_________________________________________________________________\n"
          ]
        }
      ]
    },
    {
      "cell_type": "code",
      "metadata": {
        "id": "u_cMRwWhOQn3"
…
